…
ummyVecEnv object at 0x7dd0eed41cd0>', '_vec_normalize_env': 'None', 'verbose': 2, 'policy_kwargs': "{'net_arch': [256, 256]}", 'observation_space': 'Box(-0.0, 1.0, (259,), float32)', 'action_space': 'Box(-1.0, 1.0, (2,), float32)', 'n_envs': 1, 'num_timesteps': 0, 'since_last_reset': 0, '_total_timesteps': 50000, '_num_timesteps_at_start': 0, 'eval_env': 'None', 'action_noise': 'None', 'start_time': 1749009136.0642018, 'policy': 'TD3Policy(\n  (actor): Actor(\n    (features_extractor): FlattenExtractor(\n      (flatten): Flatten(start_dim=1, end_dim=-1)\n    )\n    (mu): Sequential(\n      (0): Linear(in_features=259, out_features=256, bias=True)\n      (1): ReLU()\n      (2): Linear(in_features=256, out_features=256, bias=True)\n      (3): ReLU()\n      (4): Linear(in_features=256, out_features=2, bias=True)\n      (5): Tanh()\n    )\n  )\n  (actor_target): Actor(\n    (features_extractor): FlattenExtractor(\n      (flatten): Flatten(start_dim=1, end_dim=-1)\n    )\n    (mu): Sequential(\n      (0): Linear(in_features=259, out_features=256, bias=True)\n      (1): ReLU()\n      (2): Linear(in_features=256, out_features=256, bias=True)\n      (3): ReLU()\n      (4): Linear(in_features=256, out_features=2, bias=True)\n      (5): Tanh()\n    )\n  )\n  (critic): ContinuousCritic(\n    (features_extractor): FlattenExtractor(\n      (flatten): Flatten(start_dim=1, end_dim=-1)\n    )\n    (qf0): Sequential(\n      (0): Linear(in_features=261, out_features=256, bias=True)\n      (1): ReLU()\n      (2): Linear(in_features=256, out_features=256, bias=True)\n      (3): ReLU()\n      (4): Linear(in_features=256, out_features=1, bias=True)\n    )\n    (qf1): Sequential(\n      (0): Linear(in_features=261, out_features=256, bias=True)\n      (1): ReLU()\n      (2): Linear(in_features=256, out_features=256, bias=True)\n      (3): ReLU()\n      (4): Linear(in_features=256, out_features=1, bias=True)\n    )\n  )\n  (critic_target): ContinuousCritic(\n    (features_extractor): FlattenExtractor(\n      (flatten): Flatten(start_dim=1, end_dim=-1)\n    )\n    (qf0): Sequential(\n      (0): Linear(in_features=261, out_features=256, bias=True)\n      (1): ReLU()\n      (2): Linear(in_features=256, out_features=256, bias=True)\n      (3): ReLU()\n      (4): Linear(in_features=256, out_features=1, bias=True)\n    )\n    (qf1): Sequential(\n      (0): Linear(in_features=261, out_features=256, bias=True)\n      (1): ReLU()\n      (2): Linear(in_features=256, out_features=256, bias=True)\n      (3): ReLU()\n      (4): Linear(in_features=256, out_features=1, bias=True)\n    )\n  )\n)', 'learning_rate': 0.0001, 'tensorboard_log': 'logs/runs/pvp4real_freelevel0.95/pvp4real_freelevel0.95_2025-06-03_20-52-11_7540bf06', 'lr_schedule': '<function constant_fn.<locals>.func at 0x7dd0ef79c670>', '_last_obs': '[[0.29166666 0.29166666 0.5        0.01234568 0.5        0.5\n  0.5        0.         0.5        0.55       0.5        0
…
, '_custom_logger': 'False', 'buffer_size': 50000, 'batch_size': 1024, 'learning_starts': 10, 'tau': 0.005, 'gamma': 0.99, 'gradient_steps': -1, 'optimize_memory_usage': 'True', 'replay_buffer_class': "<class 'pvp.sb3.haco.haco_buffer.HACOReplayBuffer'>", 'replay_buffer_kwargs': "{'discard_reward': True}", '_episode_storage': 'None', 'remove_time_limit_termination': 'False', 'train_freq': "TrainFreq(frequency=1, unit=<TrainFrequencyUnit.STEP: 'step'>)", 'actor': 'Actor(\n  (features_extractor): FlattenExtractor(\n    (flatten): Flatten(start_dim=1, end_dim=-1)\n  )\n  (mu): Sequential(\n    (0): Linear(in_features=259, out_features=256, bias=True)\n    (1): ReLU()\n    (2): Linear(in_features=256, out_features=256, bias=True)\n    (3): ReLU()\n    (4): Linear(in_features=256, out_features=2, bias=True)\n    (5): Tanh()\n  )\n)', 'replay_buffer': '<pvp.sb3.haco.haco_buffer.HACOReplayBuffer object at 0x7dd0ef3ceac0>', 'use_sde_at_warmup': 'False', 'policy_delay': 2, 'target_noise_clip': 0.5, 'target_policy_noise': 0.2, 'actor_target': 'Actor(\n  (features_extractor): FlattenExtractor(\n    (flatten): Flatten(start_dim=1, end_dim=-1)\n  )\n  (mu): Sequential(\n    (0): Linear(in_features=259, out_features=256, bias=True)\n    (1): ReLU()\n    (2): Linear(in_features=256, out_features=256, bias=True)\n    (3): ReLU()\n    (4): Linear(in_features=256, out_features=2, bias=True)\n    (5): Tanh()\n  )\n)', 'critic': 'ContinuousCritic(\n  (features_extractor): FlattenExtractor(\n    (flatten): Flatten(start_dim=1, end_dim=-1)\n  )\n  (qf0): Sequential(\n    (0): Linear(in_features=261, out_features=256, bias=True)\n    (1): ReLU()\n    (2): Linear(in_features=256, out_features=256, bias=True)\n    (3): ReLU()\n    (4): Linear(in_features=256, out_features=1, bias=True)\n  )\n  (qf1): Sequential(\n    (0): Linear(in_features=261, out_features=256, bias=True)\n    (1): ReLU()\n    (2): Linear(in_features=256, out_features=256, bias=True)\n    (3): ReLU()\n    (4): Linear(in_features=256, out_features=1, bias=True)\n  )\n)', 'critic_target': 'ContinuousCritic(\n  (features_extractor): FlattenExtractor(\n    (flatten): Flatten(start_dim=1, end_dim=-1)\n  )\n  (qf0): Sequential(\n    (0): Linear(in_features=261, out_features=256, bias=True)\n    (1): ReLU()\n    (2): Linear(in_features=256, out_features=256, bias=True)\n    (3): ReLU()\n    (4): Linear(in_features=256, out_features=1, bias=True)\n  )\n  (qf1): Sequential(\n    (0): Linear(in_features=261, out_features=256, bias=True)\n    (1): ReLU()\n    (2): Linear(in_features=256, out_features=256, bias=True)\n    (3): ReLU()\n    (4): Linear(in_features=256, out_features=1, bias=True)\n  )\n)', 'human_data_buffer': '<pvp.sb3.haco.haco_buffer.HACOReplayBuffer object at 0x7dd0ef3244f0>'}
2025-06-03 20:52:29,202 INFO    MsgRouterThr:1609413 [mailbox.py:close():129] [no run ID] Closing mailbox, abandoning 1 handles.
2025-06-03 20:52:29,637 ERROR   MainThread:1609413 [redirect.py:_on_write():664] [no run ID] error in stderr callback
Traceback (most recent call last):
…
